CAE.pt (torch, 690811 bytes, 14 tensors)

Encoder.0.0.weight f4 [32, 3, 3, 3, 3]
-0.016173966 -0.011258132 -0.069078825 0.08576205 -0.019094594 -0.03331756 -0.016608374 -0.080573246
0.036224052 -0.09933427 0.035276692 0.038270988 0.07788667 0.07668456 0.06758826 0.04962611
-0.0114591615 -0.053984765 -0.057568327 -0.0031535528 -0.078797884 -0.06077548 0.0043832175 -0.060243133
-0.062062383 0.05420408 0.025321208 0.09525469 -0.03024012 0.08739263 -0.073241785 -0.067807496
-0.078464754 0.07819108 0.077151716 -0.055214837 0.0040432345 -0.030171325 -0.08634482 0.027800731
0.050625693 -0.062035713 -0.086664885 0.07405052 -0.08955192 -0.0026604722 -0.04534645 -0.020611495
0.028125731 0.05356938 -0.015259615 0.05427407 -0.003906231 0.027402068 0.00405313 0.006972385
0.07563818 0.054241993 0.0244796 -0.03095571 -0.055452134 0.0073275454 0.11506894 -0.059357096
0.017803738 0.0701747 0.0064131287 0.06769268 0.06560047 0.020851005 0.01820009 -0.088139236
0.10241373 0.04635873 0.084363274 0.055036746 -0.026087947 -0.07479285 0.018988201 -0.038888514
0.10482371 -0.034319647 0.058845222 0.009273559 0.025470862 -0.039418887 -0.013568591 -0.09759371
-0.0028533253 -0.025180142 0.06970857 0.06307635 -0.019281281 -0.061547685 -0.094165936 0.031238887
0.048218638 0.085799426 -0.05693455 0.060319874 0.09120844 0.0786141 0.087087125 0.041218676
-0.027598193 -0.021687584 -0.0829992 -0.06167838 -0.0013972328 0.0065800934 0.036449246 0.06418303
-0.06259773 -0.026814967 0.038797773 0.09044641 -0.09890483 0.09382263 0.026207535 -0.011282395
0.021844096 -0.09572127 -0.011067102 -0.016574783 -0.102639 -0.073443815 0.031467896 0.02703553
0.039119847 0.08140323 -0.0046169646 -0.020144628 -0.017610397 -0.112515144 -0.03131731 0.08378397
-0.09964811 -0.0037809638 0.009153907 -0.04266299 -0.03647297 0.11148141 -0.068153 -0.060436398
-0.05957745 -0.05826681 -0.07398419 -0.01985965 0.1025237 0.041950636 -0.07649215 0.07396496
-0.016807832 0.087347984 -0.08218146 0.008621343 0.06395813 0.085053556 0.052648224 -0.027151993
-0.073027566 -0.0057204585 -0.05912979 -0.045285374 0.07484955 0.062565796 0.029038452 0.028384496
-0.02004286 -0.028816214 -0.08591295 0.08527528 0.04695476 -0.04382929 0.07743064 0.008954034
-0.01287192 -0.06127719 0.10063425 -0.10446689 -0.016943619 -0.014056462 -0.065628536 -0.09296427
-0.110686794 0.10409972 -0.054996062 -0.0052247974 -0.055478524 0.089373745 -0.029729627 0.042088773
-0.036857076 0.04489804 0.030038066 0.07205243 0.0213619 -0.00676111 -0.097570054 -0.077118345
0.04983831 -0.027386356 -0.03782037 -0.0074242554 0.05703982 -0.11405423 -0.038407195 0.029969525
-0.10876469 -0.10489135 0.044822775 -0.012276486 -0.09603208 -0.094340995 -0.109797634 0.07819238
-0.0732365 0.07297083 0.044427138 -0.07329843 -0.09692907 0.08525166 -0.00176539 -0.060283586
-0.048255563 0.019459598 0.082670204 -0.112907104 -0.09141893 -0.08348514 -0.026767597 0.06763964
0.091855675 -0.103053704 0.09809176 0.00096431706 0.029072834 -0.04666948 -0.083645694 -0.055711213
-0.009296074 0.07465529 0.018749403 0.08155922 -0.08560867 0.02595019 0.038413428 0.03045402
0.00034799168 0.01101041 -0.01316291 -0.025883887 -0.07733351 0.10302767 0.104374416 -0.085164584
00000000: 447f 84bc 0774 38bc 3379 8dbd 03a4 af3d
00000010: 446c 9cbc fe77 08bd 490e 88bc 9603 a5bd
00000020: ac5f 143d c46f cbbd 4b7e 103d 0ac2 1c3d
00000030: 0c83 9f3d cb0c 9d3d b76b 8a3d bf44 4b3d
00000040: 35bf 3bbc 211f 5dbd c4cc 6bbd d6ab 4ebb
00000050: c960 a1bd b6ef 78bd 18a1 8f3b 81c1 76bd
00000060: 2035 7ebd 1905 5e3d 6c6e cf3c e414 c33d
00000070: 21ba f7bc e8fa b23d caff 95bd a8de 8abd
00000080: 21b2 a0bd a522 a03d b801 9e3d f428 62bd
00000090: 1c7d 843b db29 f7bc 8ed5 b0bd 5cbe e33c
000000a0: e35c 4f3d 2919 7ebd 5c7d b1bd cda7 973d
000000b0: ff66 b7bd 515b 2ebb 33bd 39bd 70d9 a8bc
000000c0: ef67 e63c 916b 5b3d 7703 7abc 7d4e 5e3d
000000d0: aeff 7fbb 4d7a e03c 1ed0 843b 9b78 e43b
000000e0: 31e8 9a3d da2c 5e3d 7189 c83c d496 fdbc
000000f0: c721 63bd e81b f03b 44a9 eb3d 6d20 73bd
00000100: 25d9 913c c1b7 8f3d 3925 d23b 76a2 8a3d
00000110: 8a59 863d bacf aa3c 5b18 953c 5882 b4bd
00000120: 4abe d13d a7e2 3d3d a7c6 ac3d 366e 613d
00000130: 64b6 d5bc fe2c 99bd 258d 9b3c 9049 1fbd
00000140: d0ad d63d c292 0cbd b007 713d 20f0 173c
00000150: 45a8 d03c b375 21bd cc4e 5ebc 36df c7bd
00000160: dbfe 3abb 9646 cebc 5ec3 8e3d 2c2e 813d
00000170: c7f3 9dbc 6d19 7cbd 12da c0bd b2e8 ff3c
00000180: e880 453d 9cb7 af3d 3434 69bd f911 773d
00000190: 7ecb ba3d 6e00 a13d bc5a b23d ead4 283d
000001a0: 9b15 e2bc 29aa b1bc 7cfb a9bd 78a2 7cbd
000001b0: 5a23 b7ba d39d d73b ce4b 153d 6472 833d
000001c0: 3d33 80bd 10ab dbbc 6aea 1e3d f83b b93d
000001d0: 9e8e cabd 1426 c03d 2fb1 d63c cbd9 38bc
000001e0: 64f2 b23c 8309 c4bd ca52 35bc d7c7 87bc
000001f0: 6534 d2bd b669 96bd 7be4 003d 9e79 dd3c
00000200: 223c 203d bdb6 a63d e849 97bb 5906 a5bc
00000210: ae43 90bc 576e e6bd 9446 00bd ee96 ab3d
00000220: 4f14 ccbd 0cca 77bb 45fa 153c 63bf 2ebd
00000230: ae64 15bd 5e50 e43d cd93 8bbd 288c 77bd
00000240: 7c07 74bd 2ea9 6ebd 0685 97bd b4b0 a2bc
00000250: f2f7 d13d 6ed4 2b3d eba7 9cbd f17a 973d
00000260: 94b0 89bc 80e3 b23d c14e a8bd 8940 0d3c
00000270: 7bfc 823d 8f30 ae3d aaa5 573d db6d debc
00000280: 7a8f 95bd af72 bbbb 1432 72bd 287d 39bd
00000290: b94a 993d 7f22 803d 0ce2 ed3c 9a86 e83c
000002a0: ed30 a4bc fb0f ecbc 21f3 afbd cea4 ae3d
000002b0: a253 403d 5786 33bd f593 9e3d f1b3 123c
000002c0: bfe4 52bc cafd 7abd 5419 ce3d bdf2 d5bd
000002d0: 58cd 8abc 134d 66bc 4168 86bd 0d64 bebd
000002e0: c2af e2bd 3c32 d53d 8d43 61bd c734 abbb
000002f0: 733d 63bd 9509 b73d 8c8b f3bc 4765 2c3d
00000300: 72f7 16bd 02e7 373d 6412 f63c 3990 933d
00000310: 27ff ae3c 4d8c ddbb cfd2 c7bd 39f0 9dbd
00000320: 4123 4c3d 5a59 e0bc 88e9 1abd 2b47 f3bb
00000330: 96a2 693d 4495 e9bd dd50 1dbd a682 f53c
00000340: 06c0 debd 47d1 d6bd 1698 373d 5023 49bc
00000350: 78ac c4bd da35 c1bd 95dd e0bd 5423 a03d
00000360: 05fd 95bd bb71 953d 3bf9 353d 7d1d 96bd
00000370: c082 c6bd 6c98 ae3d a964 e7ba eceb 76bd
00000380: a0a7 45bd bc69 9f3c ff4e a93d d73b e7bd
00000390: d939 bbbd 42fa aabd b847 dbbc a786 8a3d
000003a0: d41e bc3d d20d d3bd 55e4 c83d 39ca 7c3a
000003b0: 272a ee3c 7f28 3fbd 6f4e abbd 7131 64bd
000003c0: 8f4e 18bc dfe4 983d 5998 993c 8508 a73d
000003d0: 9953 afbd 7e95 d43c 6657 1d3d b57a f93c
000003e0: a772 b639 0265 343c 3fa9 57bc 720a d4bc
000003f0: 0861 9ebd 2c00 d33d 41c2 d53d c56a aebd

Encoder.0.0.bias f4 [32]
-0.09393694 0.023920806 -0.05968559 0.008785827 -0.041668408 0.074783064 0.06687803 0.044964265
-0.004454554 0.07765974 -0.039527867 -0.111673206 0.052633103 0.022811312 0.018789873 -0.005116555
-0.107380725 -0.07306133 0.085374795 0.109419875 0.057883777 -0.037820257 -0.10707796 0.05598138
0.075663194 0.028742397 0.05439939 0.08242204 0.031734742 0.008186259 0.006535121 -0.012073805
00000000: 0362 c0bd 91f5 c33c e178 74bd 6ef2 0f3c
00000010: 7eac 2abd dd27 993d 59f7 883d 732c 383d
00000020: 82f7 91bb 120c 9f3d f9e7 21bd ecb4 e4bd
00000030: cf95 573d cade ba3c 38ed 993c c6a8 a7bb
00000040: 6dea dbbd 2ea1 95bd fbd8 ae3d 8717 e03d
00000050: 8a17 6d3d 6ae9 1abd b14b dbbd bb4c 653d
00000060: 4ef5 9a3d 2d75 eb3c e5d1 5e3d e3cc a83d
00000070: 4afc 013d a91f 063c 9124 d63b 35d1 45bc

Encoder.1.0.weight f4 [32, 32, 3, 3, 3]
-0.01934096 -0.030932961 -0.03407281 0.003506233 0.0005019604 0.010156732 0.018677281 0.018689932
-0.026158951 0.006355226 0.017794238 0.024467712 -0.03446601 -0.01762733 0.031331256 -0.013620445
0.019253766 -0.033466432 0.02631205 -0.03678315 -0.02863259 -0.005959855 0.01858182 -0.037434533
0.027040124 -0.038064435 0.013514413 0.02796506 -0.0178233 0.024477161 0.023524169 -0.007876264
-0.006279987 -0.03825772 -0.011148355 -0.023826431 -0.02372099 0.0018386092 0.022670772 -0.027639225
-0.03794591 0.027599143 -0.03579681 0.01975582 -0.0005931089 -0.0108626615 -0.026519986 -0.03244511
0.0043289606 -0.013121675 -0.012597043 -0.026539305 -0.031647887 0.01949265 0.004462526 -0.02583906
0.0055890894 -0.019393003 -0.021863056 -0.0018700431 -0.029564673 0.009678746 -0.024835147 0.00036294197
-0.013960778 -0.016561944 -0.039290287 0.0028371844 -0.031431872 0.025559831 0.023859365 -0.0025385108
-0.026019225 -0.0312541 0.009886348 -0.030387297 -0.008451745 0.018519253 -0.03402844 -0.00082796055
-0.030934518 -0.03521777 -0.035408884 0.015677707 -0.02602427 -0.025996659 -0.0067130816 -0.024067122
0.020200413 -0.0014798022 -0.009984487 0.022997467 -0.010234914 0.012084762 -0.017471544 -0.016614204
-0.03659151 -0.0117916865 0.021108883 -0.03883287 0.024606809 -0.017155344 0.015797628 -0.018346269
0.0007997768 0.023377534 0.020841049 -0.016889052 0.023247678 -0.019245366 0.023495931 -0.035360415
0.02770794 0.022189127 0.016579792 0.022626512 0.0026257741 -0.019265633 -0.039273497 0.025119347
-0.0131773455 0.027090356 -0.002650361 0.02248002 -0.028838104 -0.034999188 -0.03366328 -0.00989443
-0.011266356 -0.038293637 -0.02240879 0.011438297 -0.02006837 -0.01381071 -0.017371405 -0.028406562
-0.024737751 -3.686671e-06 0.0020783287 0.0032943236 -0.02693093 0.014357111 -0.037875976 0.02759457
0.024928229 -0.03411144 -0.012612385 -0.032867603 -0.0043235 -0.015509329 -0.0008782704 0.011072115
-0.0080919685 0.022427157 -0.035762545 0.015136864 0.013862388 0.00880713 -0.032877404 -0.024786375
-0.013839488 0.020914646 -0.014297167 0.014343654 0.00068531325 -0.015203009 0.021972084 0.0019025315
0.019380651 0.024938015 -0.038719267 -0.0348834 0.023043824 -0.014768208 -0.029707173 0.018076053
-0.0061907778 -0.032207154 -0.025493896 -0.03461805 -0.030367246 -0.019929485 -0.0010379566 -0.02376474
0.020785566 0.00912475 -0.028332878 -0.032576352 0.018902317 -0.033364978 -0.033555273 0.011501304
0.007379549 -0.0075838105 0.015372644 -0.011225164 -0.032374352 -0.004263129 0.0012989937 -0.019965045
-0.033322264 0.020713588 0.0016120021 0.014423473 -0.0008688238 -0.004901511 0.004009961 0.025257174
-0.03796278 0.020130444 -0.028647386 0.0012502738 -0.017243378 -0.033465263 -0.004715543 0.009094679
0.024930755 -0.01938458 -0.033373047 -0.0051858546 -0.035071407 -0.016087746 0.009906895 -0.018926324
-0.022767706 0.019678792 -0.03766795 0.017491335 -0.02028773 -0.028887074 -0.017314745 -0.03336758
-0.035632044 0.02448603 0.004248953 0.0007143279 -0.021525914 -0.015854033 -0.00861566 0.014484518
0.022305422 -0.026947238 0.0024520513 -0.01580054 -0.032783803 -0.0067614643 -0.02738335 -0.016683292
-0.012726351 -0.009109843 -0.022627078 -0.0044892165 -0.018445589 -0.027013417 -0.03587527 -0.015051365
00000000: ef70 9ebc 1f67 fdbc ee8f 0bbd d4c8 653b
00000010: fe95 033a 6c68 263c 1901 993c a11b 993c
00000020: 4c4b d6bc 803f d03b 39c5 913c 8370 c83c
00000030: 3b2c 0dbd 3167 90bc 3455 003d 4928 5fbc
00000040: 13ba 9d3c 1914 09bd 5e8c d73c eea9 16bd
00000050: e58e eabc e34a c3bb e738 983c f454 19bd
00000060: 4083 dd3c 74e9 1bbd 8e6b 5d3c fb16 e53c
00000070: 2b02 92bc 5484 c83c c2b5 c03c 720b 01bc
00000080: 59c8 cdbb 21b4 1cbd 97a7 36bc a62f c3bc
00000090: 8652 c2bc 7dfd f03a 0eb8 b93c a86b e2bc
000000a0: 2c6d 1bbd 9917 e23c ad9f 12bd f5d6 a13c
000000b0: dd7a 1bba 4ef9 31bc 7140 d9bc 2ae5 04bd
000000c0: f4d9 8d3b 4bfc 56bc d463 4ebc f568 d9bc
000000d0: 37a1 01bd 0daf 9f3c 623a 923b 70ac d3bc
000000e0: ae24 b73b 13de 9ebc 271a b3bc 3c1c f5ba
000000f0: 9d31 f2bc 9a93 1e3c 1473 cbbc 3f49 be39
00000100: bfbb 64bc eaac 87bc daee 20bd 0ef0 393b
00000110: b5be 00bd da62 d13c b774 c33c 255d 26bb
00000120: 4526 d5bc 4d04 00bd 59fa 213c c8ee f8bc
00000130: 3079 0abc b0b5 973c 6861 0bbd 7e0b 59ba
00000140: 636a fdbc 8240 10bd e808 11bd 896e 803c
00000150: da30 d5bc f2f6 d4bc 69f9 dbbb 6a28 c5bc
00000160: 567b a53c ecf5 c1ba f995 23bc 2f65 bc3c
00000170: 57b0 27bc 2aff 453c 7c20 8fbc 831a 88bc
00000180: fbe0 15bd eb31 41bc 89ec ac3c 370f 1fbd
00000190: 3894 c93c 5d89 8cbc 076a 813c ea4a 96bc
000001a0: 1da8 513a 3e82 bf3c d9ba aa3c e95a 8abc
000001b0: ea71 be3c 75a8 9dbc 8a7a c03c 15d6 10bd
000001c0: c3fb e23c f9c5 b53c 58d2 873c 3c5b b93c
000001d0: 2e15 2c3b f6d2 9dbc 3fdd 20bd 17c7 cd3c
000001e0: cbe5 57bc 98ec dd3c aeb1 2dbb 0528 b83c
000001f0: e33d ecbc 4f5b 0fbd 82e2 09bd 3f1c 22bc
00000200: 8696 38bc cad9 1cbd a492 b7bc b267 3b3c
00000210: 6c66 a4bc 5146 62bc 7a4e 8ebc e1b4 e8bc
00000220: d3a6 cabc 8768 77b6 9234 083b 94e5 573b
00000230: 419e dcbc 173a 6b3c d723 1bbd 020e e23c
00000240: 4936 cc3c 70b8 0bbd 2da4 4ebc 2ea0 06bd
00000250: 26ac 8dbb d71a 7ebc bb3b 66ba d167 353c
00000260: 2d94 04bc 28b9 b73c bf7b 12bd 9c00 783c
00000270: 121f 633c c84b 103c 75aa 06bd cc0c cbbc
00000280: 05bf 62bc 3155 ab3c aa3e 6abc a501 6b3c
00000290: 98a6 333a 0b16 79bc cdfe b33c 5d5e f93a
000002a0: 2cc4 9e3c cf4a cc3c 1898 1ebd e5e1 0ebd
000002b0: 67c6 bc3c 5bf6 71bc 755c f3bc 3b14 943c
000002c0: 02dc cabb a6eb 03bd 93d8 d0bc a8cb 0dbd
000002d0: bbc4 f8bc 2943 a3bc 0b0c 88ba 46ae c2bc
000002e0: 7e46 aa3c fa7f 153c 5a1a e8bc c86e 05bd
000002f0: 08d9 9a3c b7a9 08bd 4171 09bd f76f 3c3c
00000300: 25d0 f13b 9d81 f8bb 8bdd 7b3c c0e9 37bc
00000310: f89a 04bd b8b1 8bbb ff42 aa3a bc8d a3bc
00000320: ed7c 08bd 8baf a93c d149 d33a 6e50 6c3c
00000330: c7c1 63ba db9c a0bb fe65 833b 22e8 ce3c
00000340: dc7e 1bbd 9ae8 a43c ecad eabc 3ae0 a33a
00000350: fc41 8dbc df12 09bd d784 9abb d901 153c
00000360: 953b cc3c 69cc 9ebc 2db2 08bd 1aee a9bb
00000370: 09a7 0fbd 73ca 83bc 8850 223c 610b 9bbc
00000380: 5783 babc 6b35 a13c b549 1abd fd49 8f3c
00000390: 7432 a6bc 96a4 ecbc a7d7 8dbc 72ac 08bd
000003a0: e8f2 11bd ed96 c83c cd3a 8b3b bc41 3b3a
000003b0: 1d57 b0bc 51e0 81bc b228 0dbc 7950 6d3c
000003c0: dcb9 b63c 74c0 dcbc 98b2 203b 2270 81bc
000003d0: 4f48 06bd 468f ddbb 0c53 e0bc 66ab 88bc
000003e0: 2f82 50bc 7341 15bc 6c5c b9bc 471a 93bb
000003f0: 341b 97bc 3e4b ddbc f2f1 12bd 009a 76bc

Encoder.1.0.bias f4 [32]
-0.007882941 -0.02589904 0.020796364 -0.036944784 -0.03776899 0.025884688 -0.032438964 0.029629173
0.011809363 -0.03206563 0.018222159 -0.03704843 -0.029906502 -0.03655621 -0.006799342 0.013449378
0.025163053 0.016411638 -0.02910944 -0.012524437 -0.027297359 -0.013501958 0.014621567 -0.035600957
0.0019315572 0.0058153193 -0.02657851 -0.016806718 -0.023417357 -0.009113467 0.0031787828 -0.027365798
00000000: 7327 01bc 392a d4bc 235d aa3c 6a53 17bd
00000010: a8b3 1abd 200c d43c b8de 04bd e1b8 f23c
00000020: 0f7c 413c 4057 03bd a346 953c 18c0 17bd
00000030: 7bfe f4bc f7bb 15bd 04cd debb c85a 5c3c
00000040: bf22 ce3c b371 863c ec76 eebc 4c33 4dbc
00000050: b69e dfbc 5137 5dbc 4c8f 6f3c 4fd2 11bd
00000060: 4e2c fd3a 6f8e be3b 2dbb d9bc 3eae 89bc
00000070: c2d5 bfbc a750 15bc 2053 503b 3d2e e0bc

Encoder.2.0.weight f4 [64, 32, 3, 3, 3]
0.0023095456 -0.007995522 0.012599409 0.018387396 -0.022701163 0.011863785 -0.02375143 0.0046525477
-0.01704635 0.026700895 -0.026692254 -0.03578758 -0.03182704 -0.027204579 0.012417224 0.020307822
-0.027186764 -0.005356835 -0.022158807 0.011327129 -0.019731611 0.01952017 -0.028944004 0.0026180446
-0.02685832 -0.022266984 -0.009154492 -0.029197734 0.012966387 -0.0210831 0.020652516 -0.027709637
0.015297175 0.023362024 0.0143549135 -0.013144296 -0.022286637 -0.013584166 0.027885428 0.020228991
-0.03730117 -0.022245498 0.006746148 0.020650776 -0.00047410734 -0.033463817 0.024581447 -0.0059099863
-0.026052732 0.010975879 -0.036342505 -0.0047368924 -0.038525898 -0.034830812 -0.02006557 0.010631795
0.0172701 -0.023726068 -0.02913879 0.027964538 -0.029321015 -0.0025055856 0.008198914 0.022622056
-0.0014497457 -0.011681489 0.024037436 -0.02336641 0.0074294126 -0.025463797 -0.0018588518 -0.036776204
0.02763979 -0.008779786 -0.024771098 -0.0135900555 0.019854689 -0.006131413 -0.010260723 -0.0023906052
-0.006767992 -0.032556035 -0.021158945 0.010995665 0.012418781 0.015092458 0.0059959907 -0.008681504
0.015797978 0.01741271 -0.006303943 0.009950938 -0.0024474463 -0.0062439004 0.000991796 0.016091844
-0.018547298 -0.0036473183 0.013382049 -0.029196497 0.00983169 0.025715403 -0.027785901 0.021204753
-0.013373376 -0.03555381 -0.021177394 0.00443457 0.012651948 0.0013004091 -0.03385881 0.015089236
-0.010695654 -0.019083932 0.02533784 -0.0010893719 -0.009038989 -0.018781789 -0.00360235 -0.01941881
-0.027582448 -0.0006377735 -0.012843565 -0.0094649475 -0.01812919 0.014243574 0.011889574 0.023460265
-0.029622383 -0.018565161 -0.017396206 -0.022050083 -0.017485807 -0.004685317 -0.03490909 -0.026908822
0.013733139 0.008277035 0.017254563 0.020275146 -0.016084366 -0.0010484764 -0.031059057 -0.0013263759
-0.005433014 -0.039373785 -0.018638069 0.0004756008 -0.037058495 -0.0049729557 -0.03116124 0.019233009
-0.016744975 0.02693975 -0.016141787 0.005244418 -0.0027642322 -0.014875386 -0.021376727 0.00102941
-0.008858969 0.0039035555 -0.005488918 -0.032419242 -0.033802565 0.011648925 0.0038674015 0.022165172
0.0055054445 -0.024688777 0.009009879 -0.014195758 0.00079487544 0.00020337098 -0.022209164 -0.026921805
-0.03982626 -0.01909641 -0.032033153 -0.0353127 -0.027131831 0.02268096 -0.018156763 -0.005397038
-0.012582385 -0.017161332 -0.016364835 -0.005422309 -0.027353663 0.008272097 0.025177658 -0.019863462
-0.03656266 -0.0031105145 0.018581232 -0.03301477 -0.035820458 -0.020594327 -0.034516245 -0.024691636
0.02221724 -0.017500179 -0.037822533 -0.032495927 0.017445104 -0.0064114295 -0.018982304 -0.0070292437
0.012414436 -0.0128635615 -0.00082120975 -0.038044635 0.003223688 0.022317093 0.0033684645 -0.03218297
-0.016842501 -0.015257014 0.024390854 -0.03786981 -0.0064175 0.022757325 0.015444461 -0.0018897752
-0.035867784 0.0030880133 -0.033306573 0.024979854 -0.025610546 -0.005622683 0.0264212 0.008133007
0.009910703 -0.0007899312 -0.038177457 -0.018409254 -0.0010775225 -0.009927238 0.013002596 -0.034419876
-0.03920446 -0.038052116 0.025687434 0.013567109 -0.035597663 0.027289283 0.017043369 -0.015790554
-0.023458023 0.008265492 -0.004294674 -0.02294879 0.003720189 0.012662892 0.00487479 -0.036095314
00000000: bf5b 173b a6ff 02bc c06d 4e3c 2aa1 963c
00000010: caf7 b9bc 5260 423c 5c92 c2bc 6674 983b
00000020: c9a4 8bbc d6bb da3c b7a9 dabc ff95 12bd
00000030: 125d 02bd 23dc debc 9d71 4b3c 975c a63c
00000040: c7b6 debc 6488 afbb 6386 b5bc 6c95 393c
00000050: 30a4 a1bc c3e8 9f3c fa1b edbc 8093 2b3b
00000060: fb05 dcbc 4069 b6bc b9fc 15bc 1630 efbc
00000070: f870 543c 77b6 acbc 772f a93c 52ff e2bc
00000080: 01a1 7a3c b761 bf3c df30 6b3c 2c5b 57bc
00000090: 7792 b6bc 1f90 5ebc fb6f e43c 45b7 a53c
000000a0: 1dc9 18bd 313c b6bc cb0e dd3b d12b a93c
000000b0: 9c91 f8b9 5b11 09bd 085f c93c 8fa8 c1bb
000000c0: 8a6c d5bc 2cd4 333c e1db 14bd ef37 9bbb
000000d0: 55cd 1dbd c1aa 0ebd 8d60 a4bc fb30 2e3c
000000e0: 067a 8d3c 2c5d c2bc 79b4 eebc e315 e53c
000000f0: a032 f0bc c034 24bb bd54 063c e451 b93c
00000100: 6505 beba b763 3fbc 28ea c43c ea6a bfbc
00000110: 6e72 f33b 7499 d0bc b7a4 f3ba a5a2 16bd
00000120: d76c e23c 17d9 0fbc c2ec cabc d3a8 5ebc
00000130: 4da6 a23c 05ea c8bb 971c 28bc b3ab 1cbb
00000140: 08c6 ddbb 7a59 05bd 8655 adbc 2927 343c
00000150: 2578 4b3c 5b46 773c 047a c43b de3c 0ebc
00000160: c36a 813c 19a5 8e3c 4f91 cebb 4209 233c
00000170: 5665 20bb a299 ccbb 27ff 813a 0bd3 833c
00000180: 81f0 97bc d907 6fbb 6240 5b3c 7e2d efbc
00000190: 1915 213c 1ca9 d23c 429f e3bc 97b5 ad3c
000001a0: 011c 5bbc dfa0 11bd 377c adbc df4f 913b
000001b0: 1e4a 4f3c 7d72 aa3a 89af 0abd d838 773c
000001c0: d33c 2fbc e855 9cbc 4d91 cf3c 41c9 8eba
000001d0: 4518 14bc 44dc 99bc 6715 6cbb 3214 9fbc
000001e0: 96f4 e1bc 4130 27ba d16d 52bc de12 1bbc
000001f0: ab83 94bc e15d 693c 7dcc 423c be2f c03c
00000200: a4aa f2bc f715 98bc 7d82 8ebc 60a2 b4bc
00000210: 653e 8fbc 4a87 99bb d5fc 0ebd e46f dcbc
00000220: f600 613c 679c 073c 7159 8d3c 1018 a63c
00000230: 5cc3 83bc 086d 89ba 906f febc cad9 adba
00000240: 6d07 b2bb 6846 21bd ddae 98bc 0f5a f939
00000250: a6ca 17bd 2df4 a2bb db45 ffbc 8b8e 9d3c
00000260: c22c 89bc c0b0 dc3c c83b 84bc 5ed9 ab3b
00000270: 1f28 35bb e4b7 73bc 3f1e afbc 45ed 863a
00000280: 3625 11bc cbd2 7f3b 62dc b3bb 0aca 04bd
00000290: 8f74 0abd 22db 3e3c 3b74 7d3b bc93 b53c
000002a0: 0467 b43b 1e40 cabc 2c9e 133c 5395 68bc
000002b0: 305f 503a fb3f 5539 feef b5bc 1e8b dcbc
000002c0: dc20 23bd 1370 9cbc 3235 03bd 0da4 10bd
000002d0: 9343 debc 6ccd b93c 7ebd 94bc a3d9 b0bb
000002e0: 5926 4ebc ec95 8cbc 8c0f 86bc a0ad b1bb
000002f0: ca14 e0bc b187 073c 6041 ce3c b3b8 a2bc
00000300: bac2 15bd c6d9 4bbb ab37 983c 7f3a 07bd
00000310: 79b8 12bd 6fb5 a8bc e860 0dbd 1d46 cabc
00000320: ee00 b63c 895c 8fbc cdeb 1abd 731a 05bd
00000330: 09e9 8e3c f816 d2bb c780 9bbc 9255 e6bb
00000340: eb65 4b3c b0c1 52bc 7446 57ba b1d4 1bbd
00000350: 8344 533b 56d2 b63c 75c1 5c3b 4ad2 03bd
00000360: 49f9 89bc 8ef8 79bc 54cf c73c 601d 1bbd
00000370: e449 d2bb 926d ba3c c40a 7d3c 55b2 f7ba
00000380: 19ea 12bd 4460 4a3b 796c 08bd 8da2 cc3c
00000390: 35cd d1bc 7c3e b8bb 4671 d83c 4e40 053c
000003a0: 8060 223c 6313 4fba f75f 1cbd 01cf 96bc
000003b0: a83b 8dba dba5 22bc d708 553c dbfb 0cbd
000003c0: db94 20bd 89dc 1bbd 746e d23c 9448 5e3c
000003d0: dbce 11bd c68d df3c 899e 8b3c 315b 81bc
000003e0: 0a2b c0bc fc6b 073c 56ba 8cbb 1aff bbbc
000003f0: 6ace 733b 0578 4f3c b4bc 9f3b aed8 13bd

Encoder.2.0.bias f4 [64]
-0.021173982 0.004986752 0.0011385981 0.0201017 -0.0012805634 0.020186283 -0.0026536952 -0.014174604
-0.012620658 -0.029129917 0.010689731 0.022765938 0.033951573 0.0051362445 -0.03338145 -0.006667316
-0.0042260243 -0.026265359 0.027217256 0.01921267 0.0071747247 0.033408575 0.013785118 -0.024726277
-0.03537548 0.0004134736 -0.013867726 -0.03464457 0.020253181 0.0045506307 0.012975284 0.024095884
0.021657716 -0.00404836 -0.039522786 0.023223212 -0.014051632 -0.00363244 -0.03760846 0.002720626
-0.011195706 -0.03546943 0.018660648 0.0070714615 -0.032336038 0.0046184277 0.008695364 -0.027716687
-0.021426843 -0.021593314 0.0059092534 0.02511063 0.020223888 -0.035937153 -0.020605605 -0.023564504
-0.0044975136 -0.011606756 -0.018120242 -0.017890302 -0.014024291 0.0026278433 0.0026369398 0.0043955343
00000000: 0f75 adbc e867 a33b 033d 953a 52ac a43c
00000010: 94d8 a7ba b45d a53c 9ee9 2dbb 993c 68bc
00000020: e0c6 4ebc dda1 eebc fb23 2f3c a27f ba3c
00000030: ce10 0b3d f14d a83b fdba 08bd 8079 dabb
00000040: 767a 8abb 732a d7bc b9f6 de3c e463 9d3c
00000050: f419 eb3b 6ed7 083d fada 613c c38e cabc
00000060: e1e5 10bd 7dc7 d839 7535 63bc 77e7 0dbd
00000070: 00ea a53c 751d 953b 4996 543c bb64 c53c
00000080: 866b b13c 1ba8 84bb a5e2 21bd 9b3e be3c
00000090: d138 66bc 3b0e 6ebb 540b 1abd 884c 323b
000000a0: 326e 37bc 6548 11bd 37de 983c b8b7 e73b
000000b0: cb72 04bd 2e56 973b 0077 0e3c 1b0e e3bc
000000c0: 5987 afbc 76e4 b0bc 69a2 c13b cfb4 cd3c
000000d0: 91ac a53c d632 13bd 16cd a8bc 590a c1bc
000000e0: e15f 93bb 432a 3ebc e770 94bc af8e 92bc
000000f0: 24c6 65bc e537 2c3b 82d0 2c3b 6a08 903b

Decoder.0.0.weight f4 [32, 64, 3, 3, 3]
-0.0005037216 -0.012985208 0.021151463 -0.012613425 0.012158508 -0.016906423 0.02542806 0.0019468144
-0.008050722 -0.0038526042 -0.0017238508 -0.016694676 0.0038764868 -0.013382757 0.009519723 0.01577542
-0.013140287 0.032599777 -0.027783703 -0.010939667 -0.005015958 -0.017131994 0.00048149156 -0.0030093712
-0.023853328 0.015041091 0.010721389 -0.0023765834 -0.015970077 0.021671627 0.01992942 -0.010529231
-0.0012219447 -0.015107828 0.029597312 -0.011100222 0.01632328 -0.015888697 -0.0036694203 -0.005177327
-0.010680854 -0.004120675 0.016544033 -0.005054708 0.0014152222 -0.008538737 -0.010368553 -0.00610105
-0.028287176 0.0067583043 -0.0062965075 0.0058293114 0.021701198 0.029827835 0.007082344 0.009630481
0.028612584 0.02495893 0.014154827 -0.01572717 -0.0051865596 0.0018317021 0.006087511 0.011913734
-0.0018682046 -0.029474987 -0.025843525 0.006156257 -0.0026189976 -0.009242176 0.01515613 0.017000213
0.0031166992 -0.01208273 0.011730679 -0.029112162 -0.028347136 -0.0012159136 0.011216797 -0.0073977103
-0.011685183 0.0062374147 -0.009166824 0.02385014 -0.0027412071 0.005426805 -0.013658911 0.012768543
-0.010083056 0.02759185 -0.021936687 -0.018395297 0.030738015 0.020994432 0.0025350365 -0.0026933993
-0.01182894 0.019705614 0.011326532 0.009628858 -0.027802667 0.019806813 0.01570987 -0.019910555
0.0077979136 0.008790724 0.013527863 0.027531045 -0.006841337 0.016315069 0.0106892865 -0.007729612
-0.010693976 0.0042239716 0.025525726 -0.003165486 0.012256093 0.017902795 -0.02507167 -0.0011624163
-0.011787422 0.006463135 -0.011624868 0.012588797 0.004311178 0.0043722084 0.01794592 0.0077053276
0.0058759307 -0.017667737 0.00241439 -0.0115473475 0.0015042588 0.0062061637 -0.009942492 0.011382197
0.029448025 -0.013101847 0.0058165654 -0.014701427 0.029484663 0.010667532 -0.0021195526 -0.0062397746
-0.0046667326 0.015214833 0.014350295 -0.02619306 0.019789511 0.0013345141 0.019962125 0.0035838452
0.026355395 0.0037433694 0.0019587555 0.0072576962 0.011651584 0.014008679 -0.01875095 0.0009802488
0.017007785 0.0023469378 0.004044166 0.0029545077 0.016109783 -0.007064967 0.019329034 0.015061838
-0.005195918 0.021002926 0.0025972757 0.023367224 -0.01830915 0.025383586 0.011085104 0.025189584
0.0047641275 0.0021057103 0.026673548 0.03188982 -0.020593835 -0.010395435 0.00871511 0.012538163
0.011192607 0.020554377 -0.008578819 0.020500448 0.0035697604 -0.01074202 0.008903427 -0.009906991
-0.0060819443 0.014055113 0.019558765 -0.0039176336 0.019188192 0.030414404 -0.02242403 0.01688564
0.008824235 -0.01841604 0.009154264 0.0065915803 0.007098869 0.0048557078 0.003688746 0.005247211
0.0026423703 -0.010902879 -0.024843162 0.0106110815 -0.009596965 -0.022546068 0.0025688028 -0.00013802032
-0.000616186 -0.0045027914 -0.014747053 0.011811703 0.00256751 -0.0011432547 0.0019344938 -0.0077043073
0.014587551 0.017114367 -0.023687018 0.021939853 -0.024823096 0.019790009 -0.020445792 0.013169922
-0.0051949713 -0.0128514785 -0.01460801 -0.008921546 -0.008694437 0.015359293 -0.015953425 -0.012652596
-0.019595163 -0.010296225 0.027797565 0.0026978357 0.00077466416 0.025966672 -0.013388416 0.006158305
0.0032997008 -0.0048059057 -0.010357753 -0.0152616 0.01676651 -0.0035367887 -0.0042269873 0.0010629792
00000000: 2f0c 04ba e9bf 54bc d545 ad3c 8aa8 4ebc
00000010: 7b34 473c 577f 8abc 824e d03c 402c ff3a
00000020: 2de7 03bc f97b 7cbb d6f2 e1ba 46c3 88bc
00000030: a80c 7e3b 5a43 5bbc 9df8 1b3c 743b 813c
00000040: 5c4a 57bc 5887 053d a69a e3bc 4a3c 33bc
00000050: e85c a4bb 6558 8cbc b470 fc39 df38 45bb
00000060: 0e68 c3bc e86e 763c c4a8 2f3c 74c0 1bbb
00000070: aed3 82bc b288 b13c 0643 a33c cc82 2cbc
00000080: a929 a0ba d386 77bc 1076 f23c b5dd 35bc
00000090: 66b8 853c 0329 82bc a87a 70bb 91a6 a9bb
000000a0: c0fe 2ebc ba06 87bb 5a87 873c f7a1 a5bb
000000b0: fa7e b93a 0fe6 0bbc dde0 29bc 51eb c7bb
000000c0: 82ba e7bc c474 dd3b ef52 cebb cf03 bf3b
000000d0: b6c6 b13c 8159 f43c 0213 e83b 2ac9 1d3c
000000e0: f064 ea3c ac76 cc3c a6e9 673c 44d6 80bc
000000f0: 04f4 a9bb b915 f03a be79 c73b d231 433c
00000100: 8bde f4ba 8775 f1bc cdb5 d3bc 6dba c93b
00000110: 7da3 2bbb 7f6c 17bc 6b51 783c 0844 8b3c
00000120: 8941 4c3b a5f6 45bc 0932 403c a17c eebc
00000130: 4138 e8bc 4a5f 9fba a8c6 373c 7e68 f2bb
00000140: 3673 3fbc 3a63 cc3b 7230 16bc 5e61 c33c
00000150: d3a5 33bb 57d3 b13b a0c9 5fbc 2733 513c
00000160: 6733 25bc 4e08 e23c 91b4 b3bc bcb1 96bc
00000170: 4ace fb3c 84fc ab3c db22 263b be83 30bb
00000180: 2cce 41bc ab6d a13c eb92 393c 5cc2 1d3c
00000190: 6bc2 e3bc e641 a23c fcb1 803c 761b a3bc
000001a0: a485 ff3b f806 103c f8a3 5d3c c988 e13c
000001b0: 4b2d e0bb 2ea7 853c 1e22 2f3c af48 fdbb
000001c0: c935 2fbc 3e69 8a3b 541b d13c 0b74 4fbb
000001d0: c8cd 483c e2a8 923c 1a63 cdbc 385c 98ba
000001e0: 0820 41bc b5c8 d33b 3b76 3ebc 3e41 4e3c
000001f0: c844 8d3b be44 8f3b 5203 933c f97c fc3b
00000200: e18a c03b eebb 90bc be3a 1e3b 1631 3dbc
00000210: 8d2a c53a 135d cb3b d5e5 22bc 657c 3a3c
00000220: fc3c f13c 21a9 56bc e398 be3b 41de 70bc
00000230: d289 f13c dfc6 2e3c 31e8 0abb 0677 ccbb
00000240: 64eb 98bb a347 793c 801d 6b3c d492 d6bc
00000250: 9d1d a23c ddea ae3a 9c87 a33c f2de 6a3b
00000260: 45e7 d73c 5153 753b 775e 003b f8d1 ed3b
00000270: 49e6 3e3c a984 653c 989b 99bc b17b 803a
00000280: e953 8b3c 15cf 193b ec84 843b 6aa0 413b
00000290: aaf8 833c 3d81 e7bb ec57 9e3c edc5 763c
000002a0: 8542 aabb 540e ac3c 0e37 2a3b 9f6c bf3c
000002b0: 12fd 95bc 3df1 cf3c 4c9e 353c 635a ce3c
000002c0: 661c 9c3b f5ff 093b 7c82 da3c e69e 023d
000002d0: 67b4 a8bc 9d51 2abc d2c9 0e3c de6c 4d3c
000002e0: 3261 373c a761 a83c 2d8e 0cbc 8ef0 a73c
000002f0: a4f2 693b 4cff 2fbc aedf 113c ef50 22bc
00000300: 0c4b c7bb 6b47 663c b439 a03c 7e5f 80bb
00000310: 8e30 9d3c a127 f93c 99b2 b7bc c153 8a3c
00000320: 8693 103c 3cdd 96bc c4fb 153c 2ffe d73b
00000330: a19d e83b a11c 9f3b e3be 713b ccf0 ab3b
00000340: 9e2b 2d3b fda1 32bc e383 cbbc 1ada 2d3c
00000350: 973c 1dbc 88b2 b8bc 5c59 283b 8cb9 10b9
00000360: 8b87 21ba 278c 93bb a09d 71bc e085 413c
00000370: ab43 283b 43d9 95ba d78e fd3a 6a74 fcbb
00000380: a000 6f3c 6e33 8c3c 470b c2bc 35bb b33c
00000390: ce59 cbbc a81e a23c ef7d a7bc a8c6 573c
000003a0: 943a aabb 028f 52bc 6f56 6fbc ad2b 12bc
000003b0: 1d73 0ebc 8ba5 7b3c c2b0 82bc d64c 4fbc
000003c0: 0986 a0bc 7fb1 28bc b8b7 e33c 2cce 303b
000003d0: d512 4b3a 0fb8 d43c 165b 5bbc 9bcb c93b
000003e0: cb3f 583b dc7a 9dbb 91b3 29bc ca0b 7abc
000003f0: ec59 893c 78c9 67bb 8a82 8abb aa53 8b3a

Decoder.0.0.bias f4 [32]
0.0220406 -0.0005563093 -0.0014176349 -0.0154095795 -0.005850568 0.008229005 -0.004938335 0.013097352
-0.022179011 -0.010883996 -0.020762842 -0.007972305 -0.021384614 -0.02534158 0.014584351 -0.0020397138
-0.0018753203 0.013989652 -0.00707238 -0.013380699 -0.0057195392 -0.024110004 -0.01926404 0.0023627318
0.0018157129 0.006392621 0.013973557 -0.014220066 -0.027684063 -0.029128464 0.010571184 0.017184898
00000000: 7d8e b43c 49d5 11ba efcf b9ba 7678 7cbc
00000010: 1fb6 bfbb f3d2 063c c2d1 a1bb 4796 563c
00000020: c2b0 b5bc ca52 32bc d616 aabc 459e 02bc
00000030: c92e afbc 2599 cfbc 34f3 6e3c b8ac 05bb
00000040: 4fcd f5ba da34 653c 6cbf e7bb b83a 5bbc
00000050: f96a bbbb 5882 c5bc 9fcf 9dbc 10d8 1a3b
00000060: 37fd ed3a 3179 d13b 59f1 643c 48fb 68bc
00000070: b0c9 e2bc d19e eebc c232 2d3c 58c7 8c3c

Decoder.1.0.weight f4 [32, 32, 3, 3, 3]
-0.025428768 -0.017403444 -0.010303036 0.019949976 -0.0064869914 -0.023659255 -0.017318547 0.012514192
0.008971561 0.0072201327 -0.008513917 -0.017286489 0.010937042 -0.000847895 0.02650884 0.03408271
-0.003278774 -0.013022564 0.010323995 0.011759626 0.023782354 0.007445854 0.013257581 0.011385124
-0.0071505057 -0.02960763 -0.013785647 0.034918424 -0.010782616 -0.007991434 0.031679735 0.008095953
-0.016484128 -0.026318364 -0.020457698 0.019385457 -0.019192275 -0.02006244 0.006958747 0.023926722
-0.016267214 0.017467082 -0.024971958 0.019030089 0.012866487 0.0019053261 0.022403732 0.035512347
0.00067102734 0.020519026 0.030290328 0.0046454724 -0.026831359 0.005668433 0.004281493 -0.022127422
-0.0100853555 -0.009671396 0.024012562 0.03846318 0.004564279 -0.025539892 -0.022203315 0.018979687
-0.015395648 0.023004266 -0.007256971 -0.024906639 0.0334002 0.0058905943 0.010499844 0.03543471
-0.020628655 0.025845973 0.020241238 0.029108956 0.0107901795 0.035020597 0.034990218 -0.007896797
-0.0020926518 -0.0068094647 0.03274785 0.032362845 -0.008491681 0.029428862 -0.0060459776 0.002630851
-0.032858305 0.0063178614 -0.005683337 0.0035373694 0.03108637 0.012960486 0.030740496 -0.011289178
-0.0164491 -0.023322217 0.028657628 -0.0008304648 0.020300373 -0.0169433 0.001256019 -0.021727849
-0.007948722 0.024726165 0.025730764 0.02572848 -0.006950618 0.02066812 0.012661507 -0.002791371
-0.0009793617 -0.017218594 0.013594558 -0.01898928 0.032300495 0.029795844 -0.0135983415 -0.025902519
0.032157432 0.033543482 -0.013964298 0.02478968 0.030280238 -0.009157624 0.020759357 -0.0013518683
0.0014734977 0.02419368 0.032255284 0.038204256 -0.027601335 0.03258675 0.039253417 0.0044224965
0.032362834 -0.008599032 0.015943985 0.0076263566 -0.010800617 -0.017621066 -0.0020433078 -0.02686982
-0.011541325 -0.010564995 -0.0033341486 -0.012394388 -0.0046618683 0.00063519133 0.036715213 0.011298742
0.024167258 -0.0053375415 0.009156759 0.0048975907 0.016230343 0.014239158 -0.016323572 -0.011666213
0.03737707 -0.012846947 0.03290206 0.030425025 0.007980649 -0.023499269 0.027414463 -0.001947148
-0.024857277 0.026016207 -0.013491172 -0.014188755 0.028209772 0.0009773863 0.0050647794 -0.024635524
-0.021059828 0.006843515 0.005884698 0.0024131732 0.016931308 0.02637477 -0.024670288 -0.036843415
-0.012833625 -0.028697502 -0.0018928711 0.030577967 0.028933916 -0.0057951952 -0.027049383 -0.022754084
0.03685374 -0.030705657 0.015293546 -0.008387129 0.008790843 -0.01565149 -0.016970217 -0.006509051
-0.015206783 0.0046539763 0.02168775 0.014438342 0.023415845 -0.023655573 -0.029541982 -0.02147888
-0.012340369 0.0028432321 -0.0133057665 -0.027057828 -0.0070138876 0.032228455 -0.0053263097 -0.023151265
0.03379327 0.009843238 -0.02316534 0.007140659 0.014413857 0.039293207 0.003380015 0.03467707
0.029199254 -0.00869675 0.014650584 0.022602271 -0.021820141 0.035343073 -0.0133391805 0.0007408698
0.0018964991 0.028699132 0.012186969 0.007817809 0.019746501 0.007903036 -0.014070141 -0.0012068877
0.02844802 0.010130179 0.026302962 -0.021717073 -0.025567396 -0.026545849 -0.0012601692 0.0028316523
0.013347833 -0.020773066 -0.026823398 0.02364061 0.023264738 -0.02536532 0.007944654 -0.028647818
00000000: fe4f d0bc ab91 8ebc 11ce 28bc 226e a33c
00000010: d490 d4bb 0ed1 c1bc a0df 8dbc 5308 4d3c
00000020: 74fd 123c dd96 ec3b f57d 0bbc 659c 8dbc
00000030: 4731 333c 4545 5eba 1129 d93c 509a 0b3d
00000040: b3e0 56bb 985c 55bc f925 293c 72ab 403c
00000050: 36d3 c23c 5afc f33b 5336 593c ac88 3a3c
00000060: ca4e eabb b38b f2bc 32dd 61bc 9f06 0f3d
00000070: 92a9 30bc 81ee 02bc 9cc2 013d e3a4 043c
00000080: b909 87bc 9c99 d7bc e796 a7bc 40ce 9e3c
00000090: 1e39 9dbc fc59 a4bc 3306 e43b f901 c43c
000000a0: d242 85bc 2017 8f3c fe91 ccbc fde4 9b3c
000000b0: f5cd 523c 23bc f93a 0888 b73c 6575 113d
000000c0: e2e7 2f3a 8417 a83c 6c23 f83c 0c39 983b
000000d0: 70cd dbbc 43be b93b c44b 8c3b 9144 b5bc
000000e0: 0c3d 25bc c674 1ebc feb5 c43c 918b 1d3d
000000f0: f38f 953b 0939 d1bc bae3 b5bc 4a7b 9b3c
00000100: 073e 7cbc 7173 bc3c e3cb edbb 0209 ccbc
00000110: a6ce 083d e305 c13b 8a07 2c3c fd23 113d
00000120: 6dfd a8bc efba d33c f4d0 a53c e875 ee3c
00000130: 4bc9 303c c271 0f3d e751 0f3d 9161 01bc
00000140: df24 09bb ee21 dfbb 9c22 063d e78e 043d
00000150: b120 0bbc cc14 f13c 561d c6bb 5b6a 2c3b
00000160: 6e96 06bd 1006 cf3b 493b babb 36d3 673b
00000170: d8a8 fe3c 3858 543c 7ed3 fb3c 3ff6 38bc
00000180: 43c0 86bc 3c0e bfbc 67c3 ea3c 8db3 59ba
00000190: f84c a63c adcc 8abc 01a1 a43a 9afe b1bc
000001a0: 5b3b 02bc 878e ca3c 53c9 d23c 89c4 d23c
000001b0: 02c2 e3bb 3050 a93c 3672 4f3c 6fef 36bb
000001c0: ed5d 80ba 020e 8dbc b6bb 5e3c 688f 9bbc
000001d0: 864d 043d 6a16 f43c 94cb 5ebc 8531 d4bc
000001e0: 83b7 033d e464 093d 83ca 64bc ba13 cb3c
000001f0: 430e f83c dc09 16bc 870f aa3c 2c31 b1ba
00000200: 6122 c13a d331 c63c 1e1e 043d 117c 1c3d
00000210: 321c e2bc af79 053d 31c8 203d 97ea 903b
00000220: e48e 043d f4e2 0cbc f69c 823c 84e6 f93b
00000230: 12f5 30bc 0e5a 90bc 04e9 05bb 191e dcbc
00000240: d317 3dbc cd18 2dbc bb81 5abb d511 4bbc
00000250: 96c2 98bb f882 263a b162 163d 5c1e 393c
00000260: 6afa c53c 8be6 aebb 3b06 163c f87b a03b
00000270: 7ff5 843c 5b4b 693c 03b9 85bc a523 3fbc
00000280: b318 193d 007c 52bc 4fc4 063d e73d f93c
00000290: 45c1 023c 8a81 c0bc 4c94 e03c 7237 ffba
000002a0: 7da1 cbbc f11f d53c 140a 5dbc f477 68bc
000002b0: 2e18 e73c a41b 803a 73f6 a53b 70d0 c9bc
000002c0: a985 acbc 913f e03b 6dd4 c03b 5426 1e3b
000002d0: 87b3 8a3c e70f d83c 5819 cabc 1fe9 16bd
000002e0: 2044 52bc 0617 ebbc 371a f8ba a57e fa3c
000002f0: d206 ed3c 9fe5 bdbb ab96 ddbc c666 babc
00000300: f3f3 163d 6e8a fbbc c891 7a3c 2b6a 09bc
00000310: 7807 103c 8e37 80bc 2005 8bbc e149 d5bb
00000320: df25 79bc 6280 983b 82aa b13c cc8e 6c3c
00000330: 96d2 bf3c 55c9 c1bc 0702 f2bc 7af4 afbc
00000340: 422f 4abc 8555 3a3b 6e00 5abc 61a8 ddbc
00000350: c1d4 e5bb fc01 043d 5388 aebb b9a7 bdbc
00000360: d06a 0a3d 8845 213c 3dc5 bdbc 30fc e93b
00000370: 1928 6c3c eaf1 203d 3e83 5d3b 8b09 0e3d
00000380: 4633 ef3c d07c 0ebc 0109 703c 6628 b93c
00000390: 27c0 b2bc e6c3 103d 948c 5abc ee36 423a
000003a0: f393 f83a 711a eb3c daab 473c 4416 003c
000003b0: 6ac3 a13c bc7b 013c 7386 66bc 6e30 9eba
000003c0: d20b e93c 0df9 253c 4f79 d73c 01e8 b1bc
000003d0: b772 d1bc ae76 d9bc 432c a5ba 3e93 393b
000003e0: dfb0 5a3c 472c aabc bebc dbbc f4a9 c13c
000003f0: b195 be3c eeca cfbc 4b2a 023c d4ae eabc

Decoder.1.0.bias f4 [32]
0.011290811 0.009348579 -0.006986381 -0.023655448 -0.00010364815 0.022296276 0.036422577 -0.0020083946
-0.036562614 -0.0016498571 0.039500706 -0.022982355 -0.034468092 -0.00029902873 -0.0059611346 0.0045325616
-0.017106254 0.012351133 0.03485398 -0.010675372 0.026208848 -0.030769307 0.02021824 0.013739416
0.011647518 -0.00030505963 0.035191547 0.018371519 -0.011454932 0.0073973257 -0.011016982 -0.0033749437
00000000: 18fd 383c c82a 193c 03ee e4bb 12c9 c1bc
00000010: ad5d d9b8 aea6 b63c d72f 153d 459f 03bb
00000020: aec2 15bd 0540 d8ba 7ecb 213d 7e45 bcbc
00000030: 6a2e 0dbd f5c6 9cb9 9f55 c3bb e285 943b
00000040: 6a22 8cbc 685c 4a3c 0cc3 0e3d c1e7 2ebc
00000050: f0b3 d63c ea0f fcbc b9a0 a53c 4a1b 613c
00000060: 3bd5 3e3c 69f0 9fb9 0325 103d de7f 963c
00000070: 78ad 3bbc 4465 f23b 9280 34bc 292e 5dbb

Decoder.2.0.weight f4 [3, 32, 3, 3, 3]
0.021432092 0.026007438 0.0032691099 0.020378565 0.010637424 -0.0020199306 0.0028362572 0.020251555
-0.00601735 -0.0355887 -0.00046044966 -0.0011221815 0.0016131228 -0.01687932 -0.015902989 0.022287764
0.00020113048 0.00958606 0.00012595046 0.026792226 -0.027168874 0.02512761 -0.034130298 -0.0061533973
0.0041323625 0.0047167605 -0.0067315665 -0.03137615 -0.039102722 -0.038154475 -0.03566596 -0.0022101765
-0.010920984 -0.005349535 0.002162603 -0.042147778 -0.03652769 0.00062821846 -0.012905267 -0.033738587
-0.01855697 -0.012593612 0.015145971 -0.03513366 -0.008090175 0.013756315 -0.013603288 -0.012444406
-0.024619471 -0.017631495 -0.026895635 0.018237654 -0.040626198 -0.014467404 -0.016316084 -0.005422457
-0.03447273 -0.040204115 -0.027807033 0.02423229 0.009289346 0.013552217 0.016748086 -0.024259416
-0.01910158 -0.0079331845 0.00881274 -0.025313433 0.014469684 -0.012084628 0.014226857 0.023514325
-0.029499548 0.019437991 0.024413804 -0.010370843 -0.010242706 -0.00477116 -0.04095986 -0.02017696
-0.032692295 0.007315177 -0.02414228 -0.006238666 0.014808725 -0.002797329 0.019658092 -0.0340369
-0.0006088158 -0.0088570705 -0.020552061 0.016739907 -0.0147187 -0.017081812 0.010393591 -0.006110827
0.013185061 0.010385676 0.0011215807 -0.008585703 0.017637871 -0.023567997 -0.0034530119 0.020991515
-0.005966617 0.0058614328 0.0077079185 -0.0071183364 0.0009349987 0.025437245 0.016677048 -0.038231112
-0.012977529 0.02056734 -0.0050602746 0.015549836 0.016573112 0.012678223 0.0071085105 -0.0056144525
0.025955249 -0.0044494 0.016401442 -0.036464743 -0.03542505 -0.0008580499 -0.004241885 -0.032451615
0.016562616 -0.010861401 -0.00029713957 -0.006895333 -0.020245602 -0.030528616 -0.0007275803 -0.012241026
-0.0071260612 0.02174325 0.017340299 0.013796569 0.006963118 -0.023419768 0.0019717684 0.020769669
-0.0022710795 -0.012782427 -0.007397432 -0.016732251 -0.005996168 0.023606122 0.025394589 -0.026359988
-0.028273406 -0.028160708 -0.035515912 -0.040026985 -0.023042783 0.001090837 -0.022053313 -0.03877862
-0.01804274 0.01929613 -0.0040142387 0.009016692 -0.027020214 -0.014470648 0.025672603 0.008326078
-0.0049002776 -0.0015299593 -0.0059091183 0.010799522 0.023332072 0.005484812 -0.020838482 0.0035044062
-0.026343735 0.0067294096 -0.027912432 0.002818992 -0.016715622 0.023101998 -0.024644764 0.022459036
-0.00059608556 -0.01219961 -0.0021787833 -0.035963196 -0.015718404 0.026363142 0.0198375 0.0051946957
-0.021188289 -0.010443421 -0.013223392 0.014830128 -0.030054629 -0.014696033 -0.013291665 -0.022503078
0.01679413 -0.009223051 -0.013290342 -0.021703351 -0.010674299 -0.014056714 -0.005859358 -0.031564534
0.023738373 0.0004346059 0.0028264003 -0.0022367733 -0.039012905 0.015695726 0.02388804 0.0017268733
0.011846795 -0.01733283 0.019224323 0.0047133067 -0.009503409 -0.027874203 -0.0044150613 0.015051949
0.014601612 0.009773019 0.020554343 0.0050928527 0.013614109 -0.0069116056 0.011987364 0.006486349
-0.0140932305 -0.017303908 -0.026092535 0.02668141 0.017868537 0.012491421 0.015907163 0.010237919
-0.012858773 0.021781752 -0.024002098 0.019054454 0.016413607 0.0043154457 -0.016867885 -0.024642115
0.003535754 -0.017609064 -0.002394173 0.01958048 -0.0360531 -0.026605079 -0.034666736 -0.0058074812
00000000: 5b92 af3c 8d0d d53c 903e 563b f3f0 a63c
00000010: 9748 2e3c d060 04bb 80e0 393b 97e6 a53c
00000020: 312d c5bb 75c5 11bd 8268 f1b9 2a16 93ba
00000030: 6b6f d33a 8046 8abc fc46 82bc d494 b63c
00000040: 8de6 5239 da0e 1d3c 9211 0439 5f7b db3c
00000050: 4291 debc 6bd8 cd3c 36cc 0bbd 70a2 c9bb
00000060: c568 873b 0e8f 9a3b 7994 dcbb 4784 00bd
00000070: 2d2a 20bd de47 1cbd 7816 12bd 9cd8 10bb
00000080: eded 32bc 274b afbb 75ba 0d3b 26a3 2cbd
00000090: 0f9e 15bd 07af 243a 9d70 53bc 7931 0abd
000000a0: c904 98bc 7055 4ebc cf26 783c 50e8 0fbd
000000b0: a78c 04bc 2b62 613c 53e0 5ebc 9fe3 4bbc
000000c0: c6ae c9bc ed6f 90bc 3c54 dcbc 2267 953c
000000d0: a867 26bd b108 6dbc 4fa9 85bc deae b1bb
000000e0: 4733 0dbd 12ad 24bd 93cb e3bc cc82 c63c
000000f0: 5732 183c 1e0a 5e3c 4833 893c afbb c6bc
00000100: eb7a 9cbc 30fa 01bc 5063 103c 1e5e cfbc
00000110: 4112 6d3c 9bfe 45bc c317 693c 1da1 c03c
00000120: 09a9 f1bc 6c3c 9f3c 75ff c73c 78ea 29bc
00000130: 06d1 27bc 6457 9cbb 87c5 27bd 274a a5bc
00000140: 5be8 05bd 27b4 ef3b 08c6 c5bc b96d ccbb
00000150: 4ba0 723c 6553 37bb 020a a13c 476a 0bbd
00000160: f098 1fba 3f1d 11bc cc5c a8bc 2122 893c
00000170: b426 71bc 28ef 8bbc e149 2a3c 553d c8bb
00000180: 2706 583c af28 2a3c 0102 933a 0cab 0cbc
00000190: 4c7d 903c ac11 c1bc ed4b 62bb 66f6 ab3c
000001a0: 9c83 c3bb 4311 c03b b592 fc3b ef40 e9bb
000001b0: b31a 753a c561 d03c 4e9e 883c 3a98 1cbd
000001c0: b49f 54bc d77c a83c a9d0 a5bb bdc4 7e3c
000001d0: 56c4 873c 52b8 4f3c 82ee e83b 71f9 b7bb
000001e0: 1aa0 d43c 46cc 91bb 515c 863c 0e5c 15bd
000001f0: db19 11bd c1ee 60ba 83ff 8abb fceb 04bd
00000200: 53ae 873c 05f4 31bc 66c9 9bb9 3ff2 e1bb
00000210: 1bda a5bc 2617 fabc 16bb 3eba 968e 48bc
00000220: bc81 e9bb e61e b23c 3e0d 8e3c 010b 623c
00000230: de2a e43b d0da bfbc c938 013b 2725 aa3c
00000240: 64d6 14bb 626d 51bc 2866 f2bb 1312 89bc
00000250: 817b c4bb a061 c13c 5008 d03c e7f0 d7bc
00000260: a19d e7bc 49b1 e6bc 2279 11bd 56f3 23bd
00000270: 38c4 bcbc 6afa 8e3a 26a9 b4bc 55d6 1ebd
00000280: 5ece 93bc eb12 9e3c e089 83bb bfba 133c
00000290: 7f59 ddbc 4c16 6dbc 5a4f d23c 1a6a 083c
000002a0: 8292 a0bb ea88 c8ba 47a1 c1bb 7af0 303c
000002b0: e722 bf3c f0b9 b33b 77b5 aabc 2eaa 653b
000002c0: d1ce d7bc 6182 dc3b 9da8 e4bc d6be 383b
000002d0: 33ef 88bc 6740 bd3c d1e3 c9bc 03fc b73c
000002e0: a042 1cba dfe0 47bc ebc9 0ebb 254e 13bd
000002f0: e2c3 80bc 84f7 d73c 4182 a23c 4438 aa3b
00000300: 1093 adbc e21a 2bbc eda6 58bc 11fa 723c
00000310: 2035 f6bc a1c7 70bc 49c5 59bc 6058 b8bc
00000320: d893 893c 481c 17bc bcbf 59bc 3acb b1bc
00000330: 41e3 2ebc 224e 66bc dbff bfbb d049 01bd
00000340: fa76 c23c d1db e339 213b 393b d496 12bb
00000350: ffcb 1fbd 5394 803c dab0 c33c 4158 e23a
00000360: 0f19 423c 94fd 8dbc 547c 9d3c 1572 9a3b
00000370: 30b4 1bbc 7158 e4bc 38ac 90bb 739c 763c
00000380: 9a3b 6f3c 031f 203c 9561 a83c f2e1 a63b
00000390: b60d 5f3c c07a e2bb a666 443c 708b d43b
000003a0: 4be7 66bc edc0 8dbc 03c0 d5bc f992 da3c
000003b0: 0a61 923c d1a8 4c3c bd4f 823c f2bc 273c
000003c0: 9aad 52bc a56f b23c 0ca0 c4bc 1618 9c3c
000003d0: d475 863c 9568 8d3b 852e 8abc 43de c9bc
000003e0: 1cb8 673b e240 90bc 8fe7 1cbb 3e67 a03c
000003f0: 6aac 13bd e5f2 d9bc b5fe 0dbd af4c bebb

Decoder.2.0.bias f4 [3]
-0.023380069 -0.006065408 -0.0032505968
00000000: 8f87 bfbc 54c0 c6bb f707 55bb

Decoder.3.0.weight f4 [3, 3, 3, 3, 3]
-0.08055061 -0.07241346 -0.03242976 -0.017463429 0.046241008 -0.024279194 0.079079404 0.00587034
-0.029362693 -0.081438355 -0.04177638 0.0015507163 -0.07248064 0.013193394 0.054300927 -0.07958486
-0.09062767 0.020654147 -0.08020626 -0.05023507 0.044073287 0.049110465 -0.013031311 -0.09946019
-0.07174755 0.09533386 0.047780935 0.094918445 -0.080953516 0.0154134985 0.083828196 -0.07503818
0.109553285 0.10496961 -0.029753074 -0.0064125196 -0.015316459 -0.039033853 0.069548495 0.077332474
0.022238374 0.017553035 -0.06574405 -0.043266177 0.091269135 0.006182349 0.018235868 -0.0980368
0.07122738 0.06766328 -0.013742067 -0.013809472 -0.01372618 0.085251585 -0.019021193 0.10748145
0.024041863 -0.05057819 0.08829627 -0.09263396 -0.018130586 0.045177754 -0.06735106 0.07722357
0.030913437 -0.03050825 -0.008019781 -0.01038628 -0.07794827 0.048215702 0.009557028 -0.020255724
-0.055724986 0.05875122 0.109972395 0.07245656 0.018707374 -0.09812076 -0.099289365 0.05819209
0.066021875 0.070991985 -0.06990676 0.05984861 -0.07451069 0.017257258 0.003428971 0.0533424
-0.049482286 0.012739556 -0.021924015 -0.053196818 0.09284609 0.1027843 -0.0911051 0.043541472
0.11306423 -0.05147534 0.06292322 0.010002448 0.05211211 -0.036400143 0.09279559 -0.08529049
-0.082140125 -0.02643372 -0.02210484 -0.026457034 -0.052687373 -0.041790202 -0.043452892 -0.08847694
0.049120672 -0.045521438 -0.021672368 -0.046302095 0.03526322 0.11066945 0.08214267 -0.05125577
-0.103936896 -0.012864314 0.004062028 -0.04886997 0.0565898 -0.042673253 0.11107819 -0.044227663
0.06465183 -0.067199476 0.06550699 0.07456677 -0.039168563 0.07844749 0.11471953 -0.006690225
-0.016271412 0.036929514 -0.09216038 0.09089843 0.08638191 -0.08081446 0.015567843 0.041566815
-0.0880146 0.08654002 -0.09005833 0.0866531 -0.10473975 0.099208556 -0.08815211 0.04720223
0.05479468 0.10543267 -0.10414041 0.06746269 0.029079525 -0.021597594 0.053380117 -0.042347204
-0.1005057 0.025428861 0.042325985 -0.116716735 0.0319157 0.06500255 0.073552564 0.09889706
-0.06893668 0.038504418 0.009719045 0.09116079 0.019854058 -0.11069135 -0.110633194 0.08751596
-0.09118745 -0.021855015 -0.031675063 -0.011440584 -0.0076867007 -0.0030734718 -0.04785082 -0.057576213
0.023999257 -0.067111105 0.07735941 -0.10386909 0.048604164 0.028084818 0.08246845 0.1025971
-0.06554392 -0.014176607 -0.0516438 -0.0290276 -0.014060563 0.015819574 0.02560515 -0.03371345
0.0610246 0.04638924 -0.11518732 0.043972846 -0.0466416 0.021804545 0.026414765 0.07022245
0.045757517 0.08501288 0.03423647 -0.0963355 -0.03203021 -0.06256646 -0.06813431 0.024450144
0.092621826 0.018859824 0.0012002836 0.048171587 0.096245065 -0.10238476 0.030717934 -0.09006812
0.095349 0.059645317 0.051189233 0.023557365 -0.08399732 0.01137052 0.09042621 0.08512897
0.008486551 0.09639533 -0.043061297 -0.017194659 0.102757 -0.05010924 -0.10844857 -0.028846087
0.011490903 -0.02777386 0.053676486
00000000: b8f7 a4bd 824d 94bd 11d5 04bd 770f 8fbc
00000010: 3667 3d3d 29e5 c6bc 62f4 a13d fb5b c03b
00000020: 088a f0bc 27c9 a6bd b61d 2bbd 6841 cb3a
00000030: bb70 94bd 1b29 583c a66a 5e3d 63fd a2bd
00000040: 009b b9bd e332 a93c 2e43 a4bd 4ac3 4dbd
00000050: 3186 343d 0e28 493d 4881 55bc c9b1 cbbd
00000060: 61f0 92bd 663e c33d f1b5 433d 9a64 c23d
00000070: f5ca a5bd e688 7c3c 1eae ab3d 9ead 99bd
00000080: 795d e03d 4ffa d63d b8bc f3bc 1d20 d2bb
00000090: e3f1 7abc f6e1 1fbd 716f 8e3d 7d60 9e3d
000000a0: 402d b63c 62cb 8f3c d1a4 86bd e037 31bd
000000b0: 50eb ba3d 4d95 ca3b 6363 953c 85c7 c8bd
000000c0: a9df 913d 0c93 8a3d 6826 61bc 2041 62bc
000000d0: c6e3 60bc 6298 ae3d 55d2 9bbc 3c1f dc3d
000000e0: 71f3 c43c 132b 4fbd add4 b43d e0b6 bdbd
000000f0: 9886 94bc 4f0c 393d 5aef 89bd 6427 9e3d
00000100: 2d3e fd3c 70ec f9bc 6665 03bc 372b 2abc
00000110: 58a3 9fbd d47d 453d 1595 1c3c 55ef a5bc
00000120: e23f 64bd 1fa5 703d 3539 e13d 1b64 943d
00000130: 3540 993c 89f3 c8bd 3958 cbbd d45a 6e3d
00000140: 7a36 873d 3f64 913d 462b 8fbd d123 753d
00000150: 1099 98bd 185f 8d3c 96b8 603b 8f7d 5a3d
00000160: f0ad 4abd 92b9 503c fe99 b3bc e8e4 59bd
00000170: 1726 be3d 9380 d23d 5095 babd 8b58 323d
00000180: 388e e73d ced7 52bd e4dd 803d 4fe1 233c
00000190: 8273 553d 5118 15bd 9d0b be3d c8ac aebd
000001a0: 1539 a8bd 878b d8bc 3615 b5bc 6cbc d8bc
000001b0: b7ce 57bd 342c 2bbd a9fb 31bd 6633 b5bd
000001c0: c232 493d b074 3abd 408a b1bc 44a7 3dbd
000001d0: 2b70 103d aaa6 e23d 6b3a a83d 92f1 51bd
000001e0: dedc d4bd d8c4 52bc c31a 853b e12b 48bd
000001f0: b5ca 673d 26ca 2ebd f67c e33d 1128 35bd
00000200: 2e68 843d e19f 89bd 8728 863d 76b6 983d
00000210: 376f 20bd 14a9 a03d 13f2 ea3d ad39 dbbb
00000220: a04b 85bc 6743 173d 95be bcbd f528 ba3d
00000230: 00e9 b03d 0d82 a5bd 4410 7f3c f741 2a3d
00000240: 0041 b4bd e53b b13d 8070 b8bd 2e77 b13d
00000250: cb81 d6bd db2d cb3d 1889 b4bd 2057 413d
00000260: 6370 603d 15ed d73d 9147 d5bd e129 8a3d
00000270: 2f38 ee3c 70ed b0bc 1ca5 5a3d 4374 2dbd
00000280: efd5 cdbd 3050 d03c 035e 2d3d 2f09 efbd
00000290: 09ba 023d 0f20 853d baa2 963d 8b8a ca3d
000002a0: ad2e 8dbd cfb6 1d3d a13c 1f3c 82b2 ba3d
000002b0: faa4 a23c 26b2 e2bd a893 e2bd 913b b33d
000002c0: 7cc0 babd 4a09 b3bc b6bd 01bd 4a71 3bbc
000002d0: b8e0 fbbb 4d6c 49bb 39ff 43bd 09d5 6bbd
000002e0: 179a c43c 8c71 89bd 9c6e 9e3d 51b9 d4bd
000002f0: 2915 473d 2212 e63c 38e5 a83d 6e1e d23d
00000300: e43b 86bd 0045 68bc 7388 53bd 4acb edbc
00000310: 475e 66bc 0d98 813c e4c1 d13c 1d17 0abd
00000320: eef4 793d a502 3e3d 54e7 ebbd df1c 343d
00000330: 430b 3fbd 729f b23c c763 d83c cad0 8f3d
00000340: 3c6c 3b3d 3c1b ae3d 8a3b 0c3d 8c4b c5bd
00000350: 1c32 03bd d822 80bd 008a 8bbd ab4b c83c
00000360: 83b0 bd3d eb7f 9a3c d652 9d3a 924f 453d
00000370: 221c c53d 1aaf d1bd 2da4 fb3c a275 b8bd
00000380: 5646 c33d a64e 743d cdab 513d 60fb c03c
00000390: c906 acbd 6b4b 3a3c 6031 b93d 1958 ae3d
000003a0: 2d0b 0b3c ea6a c53d 0b61 30bd d0db 8cbc
000003b0: 4372 d23d 593f 4dbd 491a debd a14e ecbc
000003c0: 5744 3c3c 0286 e3bc e0db 5b3d

Decoder.3.0.bias f4 [3]
-0.07292391 0.13300449 -0.06678428
00000000: 2259 95bd 5432 083e 32c6 88bd
